…
ks.3.norm1.bias', 'decoder.blocks.3.attn.q_bias', 'decoder.blocks.3.attn.v_bias', 'decoder.blocks.3.attn.qkv.weight', 'decoder.blocks.3.attn.proj.weight', 'decoder.blocks.3.attn.proj.bias', 'decoder.blocks.3.norm2.weight', 'decoder.blocks.3.norm2.bias', 'decoder.blocks.3.mlp.fc1.weight', 'decoder.blocks.3.mlp.fc1.bias', 'decoder.blocks.3.mlp.fc2.weight', 'decoder.blocks.3.mlp.fc2.bias', 'decoder.norm.weight', 'decoder.norm.bias', 'decoder.head.weight', 'decoder.head.bias', 'encoder_to_decoder.weight', 'norm.weight', 'norm.bias']
Model = VisionTransformer(
  (patch_embed): PatchEmbed(
    (proj): Conv3d(3, 512, kernel_size=(2, 16, 16), stride=(2, 16, 16))
  )
  (pos_drop): Dropout(p=0.0, inplace=False)
  (blocks): ModuleList(
    (0): LGBlock(
      (first_attn_norm0): LayerNorm((512,), eps=1e-06, elementwise_affine=True)
      (first_attn): GeneralAttention(
        (q): Linear(in_features=512, out_features=512, bias=False)
        (kv): Linear(in_features=512, out_features=1024, bias=False)
        (attn_drop): Dropout(p=0.0, inplace=False)
        (proj): Linear(in_features=512, out_features=512, bias=True)
        (proj_drop): Dropout(p=0.0, inplace=False)
      )
      (second_attn_norm0): LayerNorm((512,), eps=1e-06, elementwise_affine=True)
      (second_attn): GeneralAttention(
        (q): Linear(in_features=512, out_features=512, bias=False)
        (kv): Linear(in_features=512, out_features=1024, bias=False)
        (attn_drop): Dropout(p=0.0, inplace=False)
        (proj): Linear(in_features=512, out_features=512, bias=True)
        (proj_drop): Dropout(p=0.0, inplace=False)
      )
      (third_attn_norm0): LayerNorm((512,), eps=1e-06, elementwise_affine=True)
      (third_attn_norm1): LayerNorm((512,), eps=1e-06, elementwise_affine=True)
      (third_attn): GeneralAttention(
        (q): Linear(in_features=512, out_features=512, bias=False)
        (kv): Linear(in_features=512, out_features=1024, bias=False)
        (attn_drop): Dropout(p=0.0, inplace=False)
        (proj): Linear(in_features=512, out_features=512, bias=True)
        (proj_drop): Dropout(p=0.0, inplace=False)
      )
      (drop_path): Identity()
      (norm2): LayerNorm((512,), eps=1e-06, elementwise_affine=True)
      (mlp): Mlp(
        (fc1): Linear(in_features=512, out_features=2048, bias=True)
        (act): GELU(approximate='none')
        (fc2): Linear(in_features=2048, out_features=512, bias=True)
        (drop): Dropout(p=0.0, inplace=False)
      )
    )
    (1): LGBlock(
      (first_attn_norm0): LayerNorm((512,), eps=1e-06, elementwise_affine=True)
      (first_attn): GeneralAttention(
        (q): Linear(in_features=512, out_features=512, bias=False)
        (kv): Linear(in_features=512, out_features=1024, bias=False)
        (attn_drop): Dropout(p=0.0, inplace=False)
        (proj): Linear(in_features=512, out_features=512, bias=True)
        (proj_drop): Dropout(p=0.0, inplace=False)
      )
      (second_attn_norm0): LayerNorm((512,), eps=1e-06, elementwise_affine=True)
      (second_attn): GeneralAttention(
        (q): Linear(in_features=512, out_features=512, bias=False)
        (kv): Linear(in_features=512, out_features=1024, bias=False)
        (attn_drop): Dropout(p=0.0, inplace=False)
        (proj): Linear(in_features=512, out_features=512, bias=True)
        (proj_drop): Dropout(p=0.0, inplace=False)
      )
      (third_attn_norm0): LayerNorm((512,), eps=1e-06, elementwise_affine=True)
      (third_attn_norm1): LayerNorm((512,), eps=1e-06, elementwise_affine=True)
      (third_attn): GeneralAttention(
        (q): Linear(in_features=512, out_features=512, bias=False)
        (kv): Linear(in_features=512, out_features=1024, bias=False)
        (attn_drop): Dropout(p=0.0, inplace=False)
        (proj): Linear(in_features=512, out_features=512, bias=True)
        (proj_drop): Dropout(p=0.0, inplace=False)
      )
      (drop_path): DropPath(p=0.006666666828095913)
      (norm2): LayerNorm((512,), eps=1e-06, elementwise_affine=True)
      (mlp): Mlp(
        (fc1): Linear(in_features=512, out_features=2048, bias=True)
        (act): GELU(approximate='none')
        (fc2): Linear(in_features=2048, out_features=512, bias=True)
        (drop): Dropout(p=0.0, inplace=False)
      )
    )
    (2): LGBlock(
      (first_attn_norm0): LayerNorm((512,), eps=1e-06, elementwise_affine=True)
      (first_attn): GeneralAttention(
        (q): Linear(in_features=512, out_features=512, bias=False)
        (kv): Linear(in_features=512, out_features=1024, bias=False)
        (attn_drop): Dropout(p=0.0, inplace=False)
        (proj): Linear(in_features=512, out_features=512, bias=True)
        (proj_drop): Dropout(p=0.0, inplace=False)
      )
      (second_attn_norm0): LayerNorm((512,), eps=1e-06, elementwise_affine=True)
      (second_attn): GeneralAttention(
        (q): Linear(in_features=512, out_features=512, bias=False)
        (kv): Linear(in_features=512, out_features=1024, bias=False)
        (attn_drop): Dropout(p=0.0, inplace=False)
        (proj): Linear(in_features=512, out_features=512, bias=True)
        (proj_drop): Dropout(p=0.0, inplace=False)
      )
      (third_attn_norm0): LayerNorm((512,), eps=1e-06, elementwise_affine=True)
      (third_attn_norm1): LayerNorm((512,), eps=1e-06, elementwise_affine=True)
      (third_attn): GeneralAttention(
        (q): Linear(in_features=512, out_features=512, bias=False)
        (kv): Linear(in_features=512, out_features=1024, bias=False)
        (attn_drop): Dropout(p=0.0, inplace=False)
        (proj): Linear(in_features=512, out_features=512, bias=True)
        (proj_drop): Dropout(p=0.0, inplace=False)
      )
      (drop_path): DropPath(p=0.013333333656191826)
      (norm2): LayerNorm((512,), eps=1e-06, elementwise_affine=True)
      (mlp): Mlp(
        (fc1): Linear(in_features=512, out_features=2048, bias=True)
        (act): GELU(approximate='none')
        (fc2): Linear(in_features=2048, out_features=512, bias=True)
        (drop): Dropout(p=0.0, inplace=False)
      )
    )
    (3): LGBlock(
      (first_attn_norm0): LayerNorm((512,), eps=1e-06, elementwise_affine=True)
      (first_attn): GeneralAttention(
        (q): Linear(in_features=512, out_features=512, bias=False)
        (kv): Linear(in_features=512, out_features=1024, bias=False)
        (attn_drop): Dropout(p=0.0, inplace=False)
        (proj): Linear(in_features=512, out_features=512, bias=True)
        (proj_drop): Dropout(p=0.0, inplace=False)
      )
      (second_attn_norm0): LayerNorm((512,), eps=1e-06, elementwise_affine=True)
      (second_attn): GeneralAttention(
        (q): Linear(in_features=512, out_features=512, bias=False)
        (kv): Linear(in_features=512, out_features=1024, bias=False)
        (attn_drop): Dropout(p=0.0, inplace=False)
        (proj): Linear(in_features=512, out_features=512, bias=True)
        (proj_drop): Dropout(p=0.0, inplace=False)
      )
      (third_attn_norm0): LayerNorm((512,), eps=1e-06, elementwise_affine=True)
      (third_attn_norm1): LayerNorm((512,), eps=1e-06, elementwise_affine=True)
      (third_attn): GeneralAttention(
        (q): Linear(in_features=512, out_features=512, bias=False)
        (kv): Linear(in_features=512, out_features=1024, bias=False)
        (attn_drop): Dropout(p=0.0, inplace=False)
        (proj): Linear(in_features=512, out_features=512, bias=True)
        (proj_drop): Dropout(p=0.0, inplace=False)
      )
      (drop_path): DropPath(p=0.019999999552965164)
      (norm2): LayerNorm((512,), eps=1e-06, elementwise_affine=True)
      (mlp): Mlp(
        (fc1): Linear(in_features=512, out_features=2048, bias=True)
        (act): GELU(approximate='none')
        (fc2): Linear(in_features=2048, out_features=512, bias=True)
        (drop): Dropout(p=0.0, inplace=False)
      )
    )
    (4): LGBlock(
      (first_attn_norm0): LayerNorm((512,), eps=1e-06, elementwise_affine=True)
      (first_attn): GeneralAttention(
        (q): Linear(in_features=512, out_features=512, bias=False)
        (kv): Linear(in_features=512, out_features=1024, bias=False)
        (attn_drop): Dropout(p=0.0, inplace=False)
        (proj): Linear(in_features=512, out_features=512, bias=True)
        (proj_drop): Dropout(p=0.0, inplace=False)
      )
      (second_attn_norm0): LayerNorm((512,), eps=1e-06, elementwise_affine=True)
      (second_attn): GeneralAttention(
        (q): Linear(in_features=512, out_features=512, bias=False)
        (kv): Linear(in_features=512, out_features=1024, bias=False)
        (attn_drop): Dropout(p=0.0, inplace=False)
        (proj): Linear(in_features=512, out_features=512, bias=True)
        (proj_drop): Dropout(p=0.0, inplace=False)
      )
      (third_attn_norm0): LayerNorm((512,), eps=1e-06, elementwise_affine=True)
      (third_attn_norm1): LayerNorm((512,), eps=1e-06, elementwise_affine=True)
      (third_attn): GeneralAttention(
        (q): Linear(in_features=512, out_features=512, bias=False)
        (kv): Linear(in_features=512, out_features=1024, bias=False)
        (attn_drop): Dropout(p=0.0, inplace=False)
        (proj): Linear(in_features=512, out_features=512, bias=True)
        (proj_drop): Dropout(p=0.0, inplace=False)
      )
      (drop_path): DropPath(p=0.02666666731238365)
      (norm2): LayerNorm((512,), eps=1e-06, elementwise_affine=True)
      (mlp): Mlp(
        (fc1): Linear(in_features=512, out_features=2048, bias=True)
        (act): GELU(approximate='none')
        (fc2): Linear(in_features=2048, out_features=512, bias=True)
        (drop): Dropout(p=0.0, inplace=False)
      )
    )
    (5): LGBlock(
      (first_attn_norm0): LayerNorm((512,), eps=1e-06, elementwise_affine=True)
      (first_attn): GeneralAttention(
        (q): Linear(in_features=512, out_features=512, bias=False)
        (kv): Linear(in_features=512, out_features=1024, bias=False)
        (attn_drop): Dropout(p=0.0, inplace=False)
        (proj): Linear(in_features=512, out_features=512, bias=True)
        (proj_drop): Dropout(p=0.0, inplace=False)
      )
      (second_attn_norm0): LayerNorm((512,), eps=1e-06, elementwise_affine=True)
      (second_attn): GeneralAttention(
        (q): Linear(in_features=512, out_features=512, bias=False)
        (kv): Linear(in_features=512, out_features=1024, bias=False)
        (attn_drop): Dropout(p=0.0, inplace=False)
        (proj): Linear(in_features=512, out_features=512, bias=True)
        (proj_drop): Dropout(p=0.0, inplace=False)
      )
      (third_attn_norm0): LayerNorm((512,), eps=1e-06, elementwise_affine=True)
      (third_attn_norm1): LayerNorm((512,), eps=1e-06, elementwise_affine=True)
      (third_attn): GeneralAttention(
        (q): Linear(in_features=512, out_features=512, bias=False)
        (kv): Linear(in_features=512, out_features=1024, bias=False)
        (attn_drop): Dropout(p=0.0, inplace=False)
        (proj): Linear(in_features=512, out_features=512, bias=True)
        (proj_drop): Dropout(p=0.0, inplace=False)
      )
      (drop_path): DropPath(p=0.03333333507180214)
      (norm2): LayerNorm((512,), eps=1e-06, elementwise_affine=True)
      (mlp): Mlp(
        (fc1): Linear(in_features=512, out_features=2048, bias=True)
        (act): GELU(approximate='none')
        (fc2): Linear(in_features=2048, out_features=512, bias=True)
        (drop): Dropout(p=0.0, inplace=False)
      )
    )
    (6): LGBlock(
      (first_attn_norm0): LayerNorm((512,), eps=1e-06, elementwise_affine=True)
      (first_attn): GeneralAttention(
        (q): Linear(in_features=512, out_features=512, bias=False)
        (kv): Linear(in_features=512, out_features=1024, bias=False)
        (attn_drop): Dropout(p=0.0, inplace=False)
        (proj): Linear(in_features=512, out_features=512, bias=True)
        (proj_drop): Dropout(p=0.0, inplace=False)
      )
      (second_attn_norm0): LayerNorm((512,), eps=1e-06, elementwise_affine=True)
      (second_attn): GeneralAttention(
        (q): Linear(in_features=512, out_features=512, bias=False)
        (kv): Linear(in_features=512, out_features=1024, bias=False)
        (attn_drop): Dropout(p=0.0, inplace=False)
        (proj): Linear(in_features=512, out_features=512, bias=True)
        (proj_drop): Dropout(p=0.0, inplace=False)
      )
      (third_attn_norm0): LayerNorm((512,), eps=1e-06, elementwise_affine=True)
      (third_attn_norm1): LayerNorm((512,), eps=1e-06, elementwise_affine=True)
      (third_attn): GeneralAttention(
        (q): Linear(in_features=512, out_features=512, bias=False)
        (kv): Linear(in_features=512, out_features=1024, bias=False)
        (attn_drop): Dropout(p=0.0, inplace=False)
        (proj): Linear(in_features=512, out_features=512, bias=True)
        (proj_drop): Dropout(p=0.0, inplace=False)
      )
      (drop_path): DropPath(p=0.03999999910593033)
      (norm2): LayerNorm((512,), eps=1e-06, elementwise_affine=True)
      (mlp): Mlp(
        (fc1): Linear(in_features=512, out_features=2048, bias=True)
        (act): GELU(approximate='none')
        (fc2): Linear(in_features=2048, out_features=512, bias=True)
        (drop): Dropout(p=0.0, inplace=False)
      )
    )
    (7): LGBlock(
      (first_attn_norm0): LayerNorm((512,), eps=1e-06, elementwise_affine=True)
      (first_attn): GeneralAttention(
        (q): Linear(in_features=512, out_features=512, bias=False)
        (kv): Linear(in_features=512, out_features=1024, bias=False)
        (attn_drop): Dropout(p=0.0, inplace=False)
        (proj): Linear(in_features=512, out_features=512, bias=True)
        (proj_drop): Dropout(p=0.0, inplace=False)
      )
      (second_attn_norm0): LayerNorm((512,), eps=1e-06, elementwise_affine=True)
      (second_attn): GeneralAttention(
        (q): Linear(in_features=512, out_features=512, bias=False)
        (kv): Linear(in_features=512, out_features=1024, bias=False)
        (attn_drop): Dropout(p=0.0, inplace=False)
        (proj): Linear(in_features=512, out_features=512, bias=True)
        (proj_drop): Dropout(p=0.0, inplace=False)
      )
      (third_attn_norm0): LayerNorm((512,), eps=1e-06, elementwise_affine=True)
      (third_attn_norm1): LayerNorm((512,), eps=1e-06, elementwise_affine=True)
      (third_attn): GeneralAttention(
        (q): Linear(in_features=512, out_features=512, bias=False)
        (kv): Linear(in_features=512, out_features=1024, bias=False)
        (attn_drop): Dropout(p=0.0, inplace=False)
        (proj): Linear(in_features=512, out_features=512, bias=True)
        (proj_drop): Dropout(p=0.0, inplace=False)
      )
      (drop_path): DropPath(p=0.046666666865348816)
      (norm2): LayerNorm((512,), eps=1e-06, elementwise_affine=True)
      (mlp): Mlp(
        (fc1): Linear(in_features=512, out_features=2048, bias=True)
        (act): GELU(approximate='none')
        (fc2): Linear(in_features=2048, out_features=512, bias=True)
        (drop): Dropout(p=0.0, inplace=False)
      )
    )
    (8): LGBlock(
      (first_attn_norm0): LayerNorm((512,), eps=1e-06, elementwise_affine=True)
      (first_attn): GeneralAttention(
        (q): Linear(in_features=512, out_features=512, bias=False)
        (kv): Linear(in_features=512, out_features=1024, bias=False)
        (attn_drop): Dropout(p=0.0, inplace=False)
        (proj): Linear(in_features=512, out_features=512, bias=True)
        (proj_drop): Dropout(p=0.0, inplace=False)
      )
      (second_attn_norm0): LayerNorm((512,), eps=1e-06, elementwise_affine=True)
      (second_attn): GeneralAttention(
        (q): Linear(in_features=512, out_features=512, bias=False)
        (kv): Linear(in_features=512, out_features=1024, bias=False)
        (attn_drop): Dropout(p=0.0, inplace=False)
        (proj): Linear(in_features=512, out_features=512, bias=True)
        (proj_drop): Dropout(p=0.0, inplace=False)
      )
      (third_attn_norm0): LayerNorm((512,), eps=1e-06, elementwise_affine=True)
      (third_attn_norm1): LayerNorm((512,), eps=1e-06, elementwise_affine=True)
      (third_attn): GeneralAttention(
        (q): Linear(in_features=512, out_features=512, bias=False)
        (kv): Linear(in_features=512, out_features=1024, bias=False)
        (attn_drop): Dropout(p=0.0, inplace=False)
        (proj): Linear(in_features=512, out_features=512, bias=True)
        (proj_drop): Dropout(p=0.0, inplace=False)
      )
      (drop_path): DropPath(p=0.0533333346247673)
      (norm2): LayerNorm((512,), eps=1e-06, elementwise_affine=True)
      (mlp): Mlp(
        (fc1): Linear(in_features=512, out_features=2048, bias=True)
        (act): GELU(approximate='none')
        (fc2): Linear(in_features=2048, out_features=512, bias=True)
        (drop): Dropout(p=0.0, inplace=False)
      )
    )
    (9): LGBlock(
      (first_attn_norm0): LayerNorm((512,), eps=1e-06, elementwise_affine=True)
      (first_attn): GeneralAttention(
        (q): Linear(in_features=512, out_features=512, bias=False)
        (kv): Linear(in_features=512, out_features=1024, bias=False)
        (attn_drop): Dropout(p=0.0, inplace=False)
        (proj): Linear(in_features=512, out_features=512, bias=True)
        (proj_drop): Dropout(p=0.0, inplace=False)
      )
      (second_attn_norm0): LayerNorm((512,), eps=1e-06, elementwise_affine=True)
      (second_attn): GeneralAttention(
        (q): Linear(in_features=512, out_features=512, bias=False)
        (kv): Linear(in_features=512, out_features=1024, bias=False)
        (attn_drop): Dropout(p=0.0, inplace=False)
        (proj): Linear(in_features=512, out_features=512, bias=True)
        (proj_drop): Dropout(p=0.0, inplace=False)
      )
      (third_attn_norm0): LayerNorm((512,), eps=1e-06, elementwise_affine=True)
      (third_attn_norm1): LayerNorm((512,), eps=1e-06, elementwise_affine=True)
      (third_attn): GeneralAttention(
        (q): Linear(in_features=512, out_features=512, bias=False)
        (kv): Linear(in_features=512, out_features=1024, bias=False)
        (attn_drop): Dropout(p=0.0, inplace=False)
        (proj): Linear(in_features=512, out_features=512, bias=True)
        (proj_drop): Dropout(p=0.0, inplace=False)
      )
      (drop_path): DropPath(p=0.06000000238418579)
      (norm2): LayerNorm((512,), eps=1e-06, elementwise_affine=True)
      (mlp): Mlp(
        (fc1): Linear(in_features=512, out_features=2048, bias=True)
        (act): GELU(approximate='none')
        (fc2): Linear(in_features=2048, out_features=512, bias=True)
        (drop): Dropout(p=0.0, inplace=False)
      )
    )
    (10): LGBlock(
      (first_attn_norm0): LayerNorm((512,), eps=1e-06, elementwise_affine=True)
      (first_attn): GeneralAttention(
        (q): Linear(in_features=512, out_features=512, bias=False)
        (kv): Linear(in_features=512, out_features=1024, bias=False)
        (attn_drop): Dropout(p=0.0, inplace=False)
        (proj): Linear(in_features=512, out_features=512, bias=True)
        (proj_drop): Dropout(p=0.0, inplace=False)
      )
      (second_attn_norm0): LayerNorm((512,), eps=1e-06, elementwise_affine=True)
      (second_attn): GeneralAttention(
        (q): Linear(in_features=512, out_features=512, bias=False)
        (kv): Linear(in_features=512, out_features=1024, bias=False)
        (attn_drop): Dropout(p=0.0, inplace=False)
        (proj): Linear(in_features=512, out_features=512, bias=True)
        (proj_drop): Dropout(p=0.0, inplace=False)
      )
      (third_attn_norm0): LayerNorm((512,), eps=1e-06, elementwise_affine=True)
      (third_attn_norm1): LayerNorm((512,), eps=1e-06, elementwise_affine=True)
      (third_attn): GeneralAttention(
        (q): Linear(in_features=512, out_features=512, bias=False)
        (kv): Linear(in_features=512, out_features=1024, bias=False)
        (attn_drop): Dropout(p=0.0, inplace=False)
        (proj): Linear(in_features=512, out_features=512, bias=True)
        (proj_drop): Dropout(p=0.0, inplace=False)
      )
      (drop_path): DropPath(p=0.06666667014360428)
      (norm2): LayerNorm((512,), eps=1e-06, elementwise_affine=True)
      (mlp): Mlp(
        (fc1): Linear(in_features=512, out_features=2048, bias=True)
        (act): GELU(approximate='none')
        (fc2): Linear(in_features=2048, out_features=512, bias=True)
        (drop): Dropout(p=0.0, inplace=False)
      )
    )
    (11): LGBlock(
      (first_attn_norm0): LayerNorm((512,), eps=1e-06, elementwise_affine=True)
      (first_attn): GeneralAttention(
        (q): Linear(in_features=512, out_features=512, bias=False)
        (kv): Linear(in_features=512, out_features=1024, bias=False)
        (attn_drop): Dropout(p=0.0, inplace=False)
        (proj): Linear(in_features=512, out_features=512, bias=True)
        (proj_drop): Dropout(p=0.0, inplace=False)
      )
      (second_attn_norm0): LayerNorm((512,), eps=1e-06, elementwise_affine=True)
      (second_attn): GeneralAttention(
        (q): Linear(in_features=512, out_features=512, bias=False)
        (kv): Linear(in_features=512, out_features=1024, bias=False)
        (attn_drop): Dropout(p=0.0, inplace=False)
        (proj): Linear(in_features=512, out_features=512, bias=True)
        (proj_drop): Dropout(p=0.0, inplace=False)
      )
      (third_attn_norm0): LayerNorm((512,), eps=1e-06, elementwise_affine=True)
      (third_attn_norm1): LayerNorm((512,), eps=1e-06, elementwise_affine=True)
      (third_attn): GeneralAttention(
        (q): Linear(in_features=512, out_features=512, bias=False)
        (kv): Linear(in_features=512, out_features=1024, bias=False)
        (attn_drop): Dropout(p=0.0, inplace=False)
        (proj): Linear(in_features=512, out_features=512, bias=True)
        (proj_drop): Dropout(p=0.0, inplace=False)
      )
      (drop_path): DropPath(p=0.07333333790302277)
      (norm2): LayerNorm((512,), eps=1e-06, elementwise_affine=True)
      (mlp): Mlp(
        (fc1): Linear(in_features=512, out_features=2048, bias=True)
        (act): GELU(approximate='none')
        (fc2): Linear(in_features=2048, out_features=512, bias=True)
        (drop): Dropout(p=0.0, inplace=False)
      )
    )
    (12): LGBlock(
      (first_attn_norm0): LayerNorm((512,), eps=1e-06, elementwise_affine=True)
      (first_attn): GeneralAttention(
        (q): Linear(in_features=512, out_features=512, bias=False)
        (kv): Linear(in_features=512, out_features=1024, bias=False)
        (attn_drop): Dropout(p=0.0, inplace=False)
        (proj): Linear(in_features=512, out_features=512, bias=True)
        (proj_drop): Dropout(p=0.0, inplace=False)
      )
      (second_attn_norm0): LayerNorm((512,), eps=1e-06, elementwise_affine=True)
      (second_attn): GeneralAttention(
        (q): Linear(in_features=512, out_features=512, bias=False)
        (kv): Linear(in_features=512, out_features=1024, bias=False)
        (attn_drop): Dropout(p=0.0, inplace=False)
        (proj): Linear(in_features=512, out_features=512, bias=True)
        (proj_drop): Dropout(p=0.0, inplace=False)
      )
      (third_attn_norm0): LayerNorm((512,), eps=1e-06, elementwise_affine=True)
      (third_attn_norm1): LayerNorm((512,), eps=1e-06, elementwise_affine=True)
      (third_attn): GeneralAttention(
        (q): Linear(in_features=512, out_features=512, bias=False)
        (kv): Linear(in_features=512, out_features=1024, bias=False)
        (attn_drop): Dropout(p=0.0, inplace=False)
        (proj): Linear(in_features=512, out_features=512, bias=True)
        (proj_drop): Dropout(p=0.0, inplace=False)
      )
      (drop_path): DropPath(p=0.07999999821186066)
      (norm2): LayerNorm((512,), eps=1e-06, elementwise_affine=True)
      (mlp): Mlp(
        (fc1): Linear(in_features=512, out_features=2048, bias=True)
        (act): GELU(approximate='none')
        (fc2): Linear(in_features=2048, out_features=512, bias=True)
        (drop): Dropout(p=0.0, inplace=False)
      )
    )
    (13): LGBlock(
      (first_attn_norm0): LayerNorm((512,), eps=1e-06, elementwise_affine=True)
      (first_attn): GeneralAttention(
        (q): Linear(in_features=512, out_features=512, bias=False)
        (kv): Linear(in_features=512, out_features=1024, bias=False)
        (attn_drop): Dropout(p=0.0, inplace=False)
        (proj): Linear(in_features=512, out_features=512, bias=True)
        (proj_drop): Dropout(p=0.0, inplace=False)
      )
      (second_attn_norm0): LayerNorm((512,), eps=1e-06, elementwise_affine=True)
      (second_attn): GeneralAttention(
        (q): Linear(in_features=512, out_features=512, bias=False)
        (kv): Linear(in_features=512, out_features=1024, bias=False)
        (attn_drop): Dropout(p=0.0, inplace=False)
        (proj): Linear(in_features=512, out_features=512, bias=True)
        (proj_drop): Dropout(p=0.0, inplace=False)
      )
      (third_attn_norm0): LayerNorm((512,), eps=1e-06, elementwise_affine=True)
      (third_attn_norm1): LayerNorm((512,), eps=1e-06, elementwise_affine=True)
      (third_attn): GeneralAttention(
        (q): Linear(in_features=512, out_features=512, bias=False)
        (kv): Linear(in_features=512, out_features=1024, bias=False)
        (attn_drop): Dropout(p=0.0, inplace=False)
        (proj): Linear(in_features=512, out_features=512, bias=True)
        (proj_drop): Dropout(p=0.0, inplace=False)
      )
      (drop_path): DropPath(p=0.08666666597127914)
      (norm2): LayerNorm((512,), eps=1e-06, elementwise_affine=True)
      (mlp): Mlp(
        (fc1): Linear(in_features=512, out_features=2048, bias=True)
        (act): GELU(approximate='none')
        (fc2): Linear(in_features=2048, out_features=512, bias=True)
        (drop): Dropout(p=0.0, inplace=False)
      )
    )
    (14): LGBlock(
      (first_attn_norm0): LayerNorm((512,), eps=1e-06, elementwise_affine=True)
      (first_attn): GeneralAttention(
        (q): Linear(in_features=512, out_features=512, bias=False)
        (kv): Linear(in_features=512, out_features=1024, bias=False)
        (attn_drop): Dropout(p=0.0, inplace=False)
        (proj): Linear(in_features=512, out_features=512, bias=True)
        (proj_drop): Dropout(p=0.0, inplace=False)
      )
      (second_attn_norm0): LayerNorm((512,), eps=1e-06, elementwise_affine=True)
      (second_attn): GeneralAttention(
        (q): Linear(in_features=512, out_features=512, bias=False)
        (kv): Linear(in_features=512, out_features=1024, bias=False)
        (attn_drop): Dropout(p=0.0, inplace=False)
        (proj): Linear(in_features=512, out_features=512, bias=True)
        (proj_drop): Dropout(p=0.0, inplace=False)
      )
      (third_attn_norm0): LayerNorm((512,), eps=1e-06, elementwise_affine=True)
      (third_attn_norm1): LayerNorm((512,), eps=1e-06, elementwise_affine=True)
      (third_attn): GeneralAttention(
        (q): Linear(in_features=512, out_features=512, bias=False)
        (kv): Linear(in_features=512, out_features=1024, bias=False)
        (attn_drop): Dropout(p=0.0, inplace=False)
        (proj): Linear(in_features=512, out_features=512, bias=True)
        (proj_drop): Dropout(p=0.0, inplace=False)
      )
      (drop_path): DropPath(p=0.09333333373069763)
      (norm2): LayerNorm((512,), eps=1e-06, elementwise_affine=True)
      (mlp): Mlp(
        (fc1): Linear(in_features=512, out_features=2048, bias=True)
        (act): GELU(approximate='none')
        (fc2): Linear(in_features=2048, out_features=512, bias=True)
        (drop): Dropout(p=0.0, inplace=False)
      )
    )
    (15): LGBlock(
      (first_attn_norm0): LayerNorm((512,), eps=1e-06, elementwise_affine=True)
      (first_attn): GeneralAttention(
        (q): Linear(in_features=512, out_features=512, bias=False)
        (kv): Linear(in_features=512, out_features=1024, bias=False)
        (attn_drop): Dropout(p=0.0, inplace=False)
        (proj): Linear(in_features=512, out_features=512, bias=True)
        (proj_drop): Dropout(p=0.0, inplace=False)
      )
      (second_attn_norm0): LayerNorm((512,), eps=1e-06, elementwise_affine=True)
      (second_attn): GeneralAttention(
        (q): Linear(in_features=512, out_features=512, bias=False)
        (kv): Linear(in_features=512, out_features=1024, bias=False)
        (attn_drop): Dropout(p=0.0, inplace=False)
        (proj): Linear(in_features=512, out_features=512, bias=True)
        (proj_drop): Dropout(p=0.0, inplace=False)
      )
      (third_attn_norm0): LayerNorm((512,), eps=1e-06, elementwise_affine=True)
      (third_attn_norm1): LayerNorm((512,), eps=1e-06, elementwise_affine=True)
      (third_attn): GeneralAttention(
        (q): Linear(in_features=512, out_features=512, bias=False)
        (kv): Linear(in_features=512, out_features=1024, bias=False)
        (attn_drop): Dropout(p=0.0, inplace=False)
        (proj): Linear(in_features=512, out_features=512, bias=True)
        (proj_drop): Dropout(p=0.0, inplace=False)
      )
      (drop_path): DropPath(p=0.10000000149011612)
      (norm2): LayerNorm((512,), eps=1e-06, elementwise_affine=True)
      (mlp): Mlp(
        (fc1): Linear(in_features=512, out_features=2048, bias=True)
        (act): GELU(approximate='none')
        (fc2): Linear(in_features=2048, out_features=512, bias=True)
        (drop): Dropout(p=0.0, inplace=False)
      )
    )
  )
  (norm): Identity()
  (fc_norm): LayerNorm((512,), eps=1e-06, elementwise_affine=True)
  (head): Linear(in_features=512, out_features=7, bias=True)
  (head_activation_func): Identity()
  (cablock): ResNet(
    (conv1): Conv2d(180, 128, kernel_size=(3, 3), stride=(1, 1), padding=(1, 1), bias=False)
    (bn1): BatchNorm2d(128, eps=1e-05, momentum=0.1, affine=True, track_running_stats=True)
    (relu): ReLU(inplace=True)
    (maxpool): MaxPool2d(kernel_size=3, stride=2, padding=1, dilation=1, ceil_mode=False)
    (maxpool1): MaxPool2d(kernel_size=2, stride=2, padding=0, dilation=1, ceil_mode=False)
    (layer1): Sequential(
      (0): CABlock(
        (conv1): Conv2d(128, 128, kernel_size=(3, 3), stride=(1, 1), padding=(1, 1), bias=False)
        (bn1): BatchNorm2d(128, eps=1e-05, momentum=0.1, affine=True, track_running_stats=True)
        (relu): ReLU(inplace=True)
        (conv2): Conv2d(128, 128, kernel_size=(1, 1), stride=(1, 1), bias=False)
        (bn2): BatchNorm2d(128, eps=1e-05, momentum=0.1, affine=True, track_running_stats=True)
        (attn): Sequential(
          (0): Conv2d(2, 1, kernel_size=(1, 1), stride=(1, 1), bias=False)
          (1): BatchNorm2d(1, eps=1e-05, momentum=0.1, affine=True, track_running_stats=True)
          (2): Sigmoid()
        )
      )
    )
    (layer2): Sequential(
      (0): CABlock(
        (conv1): Conv2d(128, 128, kernel_size=(3, 3), stride=(2, 2), padding=(1, 1), bias=False)
        (bn1): BatchNorm2d(128, eps=1e-05, momentum=0.1, affine=True, track_running_stats=True)
        (relu): ReLU(inplace=True)
        (conv2): Conv2d(128, 128, kernel_size=(1, 1), stride=(1, 1), bias=False)
        (bn2): BatchNorm2d(128, eps=1e-05, momentum=0.1, affine=True, track_running_stats=True)
        (attn): Sequential(
          (0): Conv2d(2, 1, kernel_size=(1, 1), stride=(1, 1), bias=False)
          (1): BatchNorm2d(1, eps=1e-05, momentum=0.1, affine=True, track_running_stats=True)
          (2): Sigmoid()
        )
        (downsample): Sequential(
          (0): Conv2d(128, 128, kernel_size=(1, 1), stride=(2, 2), bias=False)
          (1): BatchNorm2d(128, eps=1e-05, momentum=0.1, affine=True, track_running_stats=True)
        )
      )
    )
    (layer3): Sequential(
      (0): CABlock(
        (conv1): Conv2d(128, 256, kernel_size=(3, 3), stride=(2, 2), padding=(1, 1), bias=False)
        (bn1): BatchNorm2d(256, eps=1e-05, momentum=0.1, affine=True, track_running_stats=True)
        (relu): ReLU(inplace=True)
        (conv2): Conv2d(256, 256, kernel_size=(1, 1), stride=(1, 1), bias=False)
        (bn2): BatchNorm2d(256, eps=1e-05, momentum=0.1, affine=True, track_running_stats=True)
        (attn): Sequential(
          (0): Conv2d(2, 1, kernel_size=(1, 1), stride=(1, 1), bias=False)
          (1): BatchNorm2d(1, eps=1e-05, momentum=0.1, affine=True, track_running_stats=True)
          (2): Sigmoid()
        )
        (downsample): Sequential(
          (0): Conv2d(128, 256, kernel_size=(1, 1), stride=(2, 2), bias=False)
          (1): BatchNorm2d(256, eps=1e-05, momentum=0.1, affine=True, track_running_stats=True)
        )
      )
    )
    (layer4): Sequential(
      (0): CABlock(
        (conv1): Conv2d(256, 512, kernel_size=(3, 3), stride=(2, 2), padding=(1, 1), bias=False)
        (bn1): BatchNorm2d(512, eps=1e-05, momentum=0.1, affine=True, track_running_stats=True)
        (relu): ReLU(inplace=True)
        (conv2): Conv2d(512, 512, kernel_size=(1, 1), stride=(1, 1), bias=False)
        (bn2): BatchNorm2d(512, eps=1e-05, momentum=0.1, affine=True, track_running_stats=True)
        (attn): Sequential(
          (0): Conv2d(2, 1, kernel_size=(1, 1), stride=(1, 1), bias=False)
          (1): BatchNorm2d(1, eps=1e-05, momentum=0.1, affine=True, track_running_stats=True)
          (2): Sigmoid()
        )
        (downsample): Sequential(
          (0): Conv2d(256, 512, kernel_size=(1, 1), stride=(2, 2), bias=False)
          (1): BatchNorm2d(512, eps=1e-05, momentum=0.1, affine=True, track_running_stats=True)
        )
      )
    )
    (fc): Linear(in_features=100352, out_features=7, bias=True)
    (drop): Dropout(p=0.1, inplace=False)
  )
  (conv_act): Sequential(
    (0): Conv2d(3, 180, kernel_size=(3, 3), stride=(2, 2), padding=(1, 1), bias=False)
    (1): BatchNorm2d(180, eps=1e-05, momentum=0.1, affine=True, track_running_stats=True)
    (2): ReLU(inplace=True)
  )
  (fc1): Linear(in_features=51200, out_features=512, bias=True)
)
number of params: 114324610
LR = 0.00006250
Batch size = 16
Update frequent = 1
Number of training examples = 31088
Number of training training per epoch = 1943
Assigned values = [… Skip weight decay list:  {'pos_embed', 'cls_token', 'part_tokens', 'lg_region_tokens'}
Param groups = {
  "layer_17_no_decay": {
    "weight_decay": 0.0,
    "params": [
…
